cycle/ag_power_predictor/models/NeuralNetFastAI/model-internals.pkl (torch, 133985 bytes, 15 tensors)

weight f4 [3]
00000000: cf6a 7a3f fc7c 843f 8326 7e3f
0.97819227 1.0350642 0.99277514

bias f4 [3]
00000000: 6e06 e53d a81a 99bd fbb6 3abe
0.11182867 -0.074757874 -0.18233864

running_mean f4 [3]
00000000: ec7f c5bc 5e79 43bc 625c 513c
-0.02410885 -0.011930792 0.012778373

running_var f4 [3]
00000000: bbc8 823f 15fd 803f 7f20 803f
1.0217508 1.0077235 1.0009917

weight f4 [200, 3]
00000000: 0a58 b3bc 749e a03e e897 efbe d4f1 b3be
00000010: 7c57 63be ff51 523e 3407 16bd bc9c dd3e
00000020: 23a6 a2bd 75c5 223e e03a 5abe 18db a9bd
00000030: f730 0dbf 374a d1be 4603 58be 8d13 c6bb
00000040: 8cf8 a43e 3bce 813e d5ed ccbe d009 8cbe
00000050: 2865 3e3e d321 dc3e 0f28 84bd 2e3d f83e
00000060: 34c3 0cbe 9631 f7bb 5ffd 033f 22ca 02bf
00000070: 74aa abbe e360 52be 8e20 0abe cbdd 173f
00000080: b1c0 a4be edfc 7fbe 5956 a8be 466c 17bf
00000090: 48cc bdbe 4a51 ea3e d575 893e 6592 843e
000000a0: 9386 553c 7343 a4be 912f 5a3d 72d5 1dbf
000000b0: 97fd bdbe eee8 a8be 7100 c83e 11be 893e
000000c0: 66f1 54be 2398 bbbd 7da2 cb3e 8bdc 083f
000000d0: 4eb2 823e 8344 d43d 07da 8d3e 81e8 d0be
000000e0: 5682 0c3e 5b0b fabe a643 9abe 4e3c a5be
000000f0: 4fe6 a63e 161f 783e 9136 7dbe 4bd4 693e
00000100: 0c47 833e d028 38bd 8fc5 413d 7ed9 013e
00000110: 3992 b73e 9480 233f ae64 c0be 0ba5 d6bd
00000120: 7913 2b3e f620 f03e c9c6 053f 5228 aa3e
00000130: b0f7 333e a847 1bbf d5d2 1c3c d90f 01bf
00000140: acf3 b6be d42b d83e 9751 013f 5b10 14bf
00000150: 2a24 033e 1bd1 94bd 3cc0 f6bd c007 7dbe
00000160: a8a0 4e3e 365e bdbe fe83 4c3e 846f 823e
00000170: 3743 e53e 30ee c73e adf6 00bf cef8 84be
00000180: 6e9b 493e 32df e53d 62ce 02bf 3cf2 aabe
00000190: 77dc 103f 723e ad3e b5ef 97be 32c5 01be
000001a0: 80e6 07bf 8b68 cf3c ad70 04bf e1bb b0be
000001b0: 9663 2ebc 277c 793d 040e 93be 7c85 d93e
000001c0: 9aa3 b1be f59b e03e 7182 b43e 5e61 06bf
000001d0: 90d0 22be 165e 50bc fcbf 263e 752a df3d
000001e0: e15d 243e de86 983d f429 a1be 615c ad3e
000001f0: 27c4 12bf 9770 7fbe 1a8c 5dbe cf44 73be
00000200: 12d2 39be 1d14 03bf 56ee ccbd d04f e33d
00000210: 08f1 bfbe 1dac 4bbc a735 d43e 034c 87bd
00000220: 38a3 f93b 6bf0 d7bd d1e5 fd3d 137d d73e
00000230: a536 fa3e 483c b33e db24 0f3f 7be5 84bd
00000240: 2cca 02bf 5d3c a1be 4720 b33e 6d3e a83c
00000250: bf90 dbbe b99f 90be 4cf2 07bf 009f f9be
00000260: 1391 fbbd d346 9a3e 449f 573e 5714 1bbf
00000270: 4c86 a83e 4c61 f0be 89ae 1bbe 1265 43be
00000280: 8a70 1ebe b771 15be 1cfc 04bf 2987 f8be
00000290: 537e d0bd 4eac b43c 9855 8cbe 5cce 5f3e
000002a0: 442e 00bf 5140 183c 07fb 063f 7bea 49be
000002b0: c03d 193f 6839 d83d 4e85 09bf e282 b33e
000002c0: 1284 223b be88 69be 351b f23e ab86 efbe
000002d0: 0468 af3c 1264 e7bd c97f e53e 2b9c 053e
000002e0: bec1 3a3e 0c2e a33e 3841 61be e954 cfbd
000002f0: fa18 d1be 4332 643e 808b bd3e 7806 083f
00000300: 442a e9be 54bc c33d e488 adbe 9a1c 8cbe
00000310: 3e4e b0be 241e 503e f4d5 c9be b6fd 8f3b
00000320: 37b1 183c 114f d13e 919c f4be 8c66 92be
00000330: 644c 7fbe 6c5c f43e 88ea 77be 3381 0f3f
00000340: 0e39 8a3d 279a fa3d 6e0c 113d e58a 0dbe
00000350: 64ad a73d dcd0 3cbe 0216 8d3c b867 fa3c
00000360: 215c cbbe 01b1 6abe 5443 093f 93ae f0be
00000370: 6d85 e1bb 8524 123f 0bb0 573e ec70 253d
00000380: fcbe fdbe 6a9a 9a3e a2a1 cebe f7fc 24be
00000390: 654e 6dbe 7819 6bbd 23c3 183c 81a2 c43e
000003a0: 93e1 a33d 338f 193f 8c43 993e 1f4b dabe
000003b0: 74e0 813e 23d7 c9be 8882 86be ea3d 253e
000003c0: 3a55 063e 0655 ec3e 886e 33be b233 2dbd
000003d0: bce2 b53e 6ce2 febe 8757 933e a336 14bf
000003e0: 8752 ca3c 661d bbbd 3702 a6be 7b1d 403d
000003f0: 11fc f63e 1aca 00be 437a b0be 5dcd 82be
-0.021892566 0.3137089 -0.46795583 -0.35145438 -0.22201341 0.20539092 -0.036627963 0.4328364
-0.07941844 0.15895636 -0.21311522 -0.08293742 -0.5515284 -0.40876934 -0.21094999 -0.006044811
0.32220876 0.25352654 -0.400252 -0.27351236 0.18593276 0.42994556 -0.06452953 0.48484176
-0.13746339 -0.007543753 0.5155849 -0.5108968 -0.33528483 -0.20544772 -0.13488981 0.59322804
-0.32178262 -0.24998827 -0.32878378 -0.5914959 -0.37069917 0.45765144 0.2684771 0.2589294
0.013032573 -0.3208271 0.05326802 -0.61653817 -0.37107536 -0.3299021 0.39062837 0.26902822
-0.20795211 -0.09159877 0.39772406 0.5346152 0.2552666 0.1036463 0.27705404 -0.40802386
0.13721594 -0.4883679 -0.30129737 -0.3227257 0.32597587 0.24230608 -0.24727847 0.2283489
0.25640142 -0.044960797 0.047307547 0.12680623 0.35853747 0.6386807 -0.37576813 -0.10480698
0.16706647 0.46900147 0.5225645 0.33233887 0.17574954 -0.60656214 0.009571751 -0.50414807
-0.35732782 0.42220938 0.5051512 -0.57837456 0.12806764 -0.07266446 -0.120483845 -0.24709988
0.20178473 -0.3698594 0.19972226 0.25475705 0.44777843 0.3904891 -0.503764 -0.25971073
0.19688198 0.11224212 -0.51096165 -0.33387935 0.565864 0.33836704 -0.2967507 -0.1267288
-0.5308609 0.025318405 -0.5173443 -0.3451834 -0.01064386 0.060909417 -0.2872163 0.42484653
-0.3469513 0.43868986 0.3525577 -0.5249232 -0.15899873 -0.012717744 0.16284174 0.1089677
0.16051437 0.07447599 -0.3147732 0.33859542 -0.57330555 -0.24945293 -0.21635476 -0.23756717
-0.18146542 -0.51202565 -0.100063965 0.110992074 -0.3748858 -0.012431172 0.41447183 -0.06606295
0.007618334 -0.10543903 0.123973496 0.42087612 0.48869815 0.35006928 0.5591561 -0.064890824
-0.5108974 -0.31491366 0.34985563 0.02053758 -0.4288387 -0.2824686 -0.5310409 -0.4875412
-0.1228353 0.3013216 0.21056849 -0.6057791 0.3291496 -0.46949232 -0.15203299 -0.19081524
-0.15472618 -0.1459416 -0.5194719 -0.4854062 -0.101803444 0.022054818 -0.27409053 0.21856064
-0.50070596 0.009292678 0.5272679 -0.19718353 0.5985985 0.105578244 -0.5371903 0.35060793
0.0024797958 -0.22806069 0.47286382 -0.4678243 0.021411903 -0.11298384 0.44824055 0.13047855
0.1823797 0.31871068 -0.21997535 -0.10123617 -0.40839368 0.22284798 0.37020493 0.5313487
-0.4554006 0.09557405 -0.33893502 -0.2736557 -0.34434694 0.20323998 -0.39421046 0.0043942584
0.009319595 0.40880635 -0.477757 -0.28593862 -0.24931484 0.47726762 -0.2421056 0.5605652
0.067491636 0.122364335 0.035412244 -0.13822515 0.081873685 -0.18439049 0.017222408 0.030567035
-0.39718726 -0.22919084 0.5361836 -0.4700819 -0.0068823607 0.57086974 0.21063249 0.040390894
-0.49559772 0.30195934 -0.4035769 -0.16112123 -0.23174436 -0.057397336 0.009323868 0.3840523
0.08002009 0.5998413 0.29934347 -0.42635438 0.25366557 -0.3942195 -0.26271462 0.161369
0.13118449 0.46158618 -0.17522633 -0.04228563 0.35524547 -0.4978212 0.28777716 -0.5789587
0.024697555 -0.09136467 -0.32423565 0.046903115 0.48239186 -0.12577096 -0.34468278 -0.25547305

weight f4 [200]
00000000: c188 7a3f 5b64 803f 15e8 813f b394 813f
00000010: cb47 7d3f 7171 7d3f a43f 863f 75d8 743f
00000020: 76ae 863f f5fd 843f 13c5 8b3f 62b3 7a3f
00000030: f6c6 843f b232 7a3f b9ed 813f 1bff 7a3f
00000040: f9d8 803f 61c5 763f 81d5 763f c713 8a3f
00000050: 4b15 7a3f dc69 7e3f 258c 833f 3912 773f
00000060: e288 753f b2eb 753f c14f 763f 2e2d 7a3f
00000070: d7ff 703f a910 833f 5b01 823f 9e7c 773f
00000080: cecb 763f 63eb 773f 24a8 883f 071c 793f
00000090: f4fb 853f 141a 7f3f 459b 803f ac49 7e3f
000000a0: 63ff 6e3f f0e5 6f3f 4054 803f 5304 833f
000000b0: 5d86 7f3f 87a3 6a3f 13cb 7d3f d4cf 833f
000000c0: b09d 7b3f 3ec9 803f f4fb 803f 0649 7e3f
000000d0: 4df0 643f fb7f 7c3f 809a 833f 32d1 703f
000000e0: bf4e 833f 2dd8 793f db16 7a3f 2d79 863f
000000f0: 9b5b 813f 79d3 793f fe85 853f 8699 753f
00000100: 76e6 803f eb42 773f 9836 803f 989a 723f
00000110: 4313 823f 82cc 7f3f 9d48 843f 14f3 823f
00000120: 3ed6 7c3f 568f 803f a662 5b3f 8f25 853f
00000130: 519a 803f 7828 7e3f bc02 833f a2ae 6e3f
00000140: bb76 7d3f 949c 843f 4b68 813f 7080 6b3f
00000150: 4843 763f adf8 7c3f 7a3d 833f 8dd1 7c3f
00000160: bf10 7e3f fc16 713f b0de 7d3f bf0a 7c3f
00000170: 0b91 7e3f a00f 813f 92ff 833f 72ed 733f
00000180: f73b 873f 804e 753f d14f 7e3f fa96 813f
00000190: 799c 823f ea4b 7c3f c202 7a3f 8a4b 763f
000001a0: ba59 833f 490e 823f 3ebf 843f ae7d 773f
000001b0: af3e 703f 8470 843f 5069 803f a42d 873f
000001c0: 1bbf 723f 0b93 7f3f 9e06 803f e2a4 7f3f
000001d0: a6e0 7c3f 1f1a 773f 88cf 823f bd5c 8d3f
000001e0: 3f06 863f 1a28 703f fc01 7b3f d397 833f
000001f0: 3a1b 7e3f ecba 753f 8252 673f 7da4 803f
00000200: 94f0 753f 0ea6 8b3f b4c6 733f 1aa8 823f
00000210: 3d7a 7f3f bc1e 723f 9377 883f f80a 7f3f
00000220: c190 873f 766c 853f 7cd3 823f 5757 823f
00000230: b2db 813f 8976 7e3f 8118 783f 7c4c 8c3f
00000240: 4bb6 7e3f c846 7f3f e8f8 773f c579 793f
00000250: 5d31 7a3f 5d1b 7a3f 5f79 803f 33b7 773f
00000260: 3cdd 8b3f af65 713f 15dc 843f 0b75 803f
00000270: 9e03 7b3f ebef 753f 6ddc 793f d4ab 843f
00000280: 7f97 883f 8146 873f 59a5 803f d432 733f
00000290: cbe4 853f fc79 833f 563f 853f a5ea 633f
000002a0: 8d3f 853f 98b8 843f 8bae 853f 7c73 823f
000002b0: 3c22 7d3f ff6d 833f b87e 7d3f dd1b 813f
000002c0: e8cf 843f d30f 703f 45d1 843f 3be1 803f
000002d0: b50d 803f c4e8 7d3f 3ebe 893f ada6 813f
000002e0: 8d23 813f 6eab 763f 7d70 743f bb2b 7e3f
000002f0: e4d1 753f 77ee 843f e777 843f d054 823f
00000300: bc50 803f bd5b 703f f94b 873f c97b 733f
00000310: ca13 7b3f dfc3 793f a3aa 7f3f e62c 7a3f
0.9786492 1.0030626 1.0148951 1.0123504 0.9893767 0.9900122 1.0488172 0.9564279
1.0521991 1.0390002 1.0919517 0.97929966 1.0373218 0.97733605 1.0150672 0.9804551
1.0066215 0.96394926 0.9641953 1.0787286 0.9768874 0.9938028 1.0277144 0.9651218
0.9591199 0.9606277 0.96215445 0.9772519 0.9414038 1.0239459 1.0156664 0.96674526
0.9640473 0.96843547 1.0676312 0.9730839 1.0467515 0.9964917 1.0047385 0.99331164
0.9335844 0.9371023 1.0025711 1.0235695 0.998144 0.9165577 0.9913799 1.0297799
0.9828749 1.0061414 1.007689 0.99330175 0.8942917 0.9863278 1.0281525 0.94069207
1.0258406 0.97595483 0.97691125 1.050573 1.0106081 0.97588307 1.0431516 0.95937383
1.0070331 0.96586484 1.0016661 0.9476714 1.0162128 0.9992143 1.033466 1.0230432
0.9876441 1.0043743 0.856974 1.0402087 1.0047094 0.992805 1.023521 0.9323522
0.99009293 1.0360284 1.0109953 0.91992855 0.96196413 0.9881695 1.0253136 0.9875725
0.992443 0.94175696 0.9916792 0.984539 0.9944007 1.0082893 1.0312369 0.9528419
1.0565175 0.95822906 0.9934054 1.0124199 1.0204002 0.98553336 0.9766046 0.96209013
1.0261757 1.016061 1.0370862 0.96676147 0.9384565 1.0346837 1.0032139 1.0560803
0.94822854 0.99833745 1.000202 0.99860966 0.98780286 0.9652423 1.0219584 1.1043926
1.0470656 0.9381119 0.980499 1.0280708 0.99260294 0.95988345 0.9036027 1.0050198
0.9607022 1.0910051 0.9522507 1.020755 0.99795896 0.94578147 1.0661491 0.9962611
1.059105 1.0423725 1.022079 1.0182904 1.0145171 0.9939962 0.9691239 1.0960841
0.99496907 0.9971738 0.96864176 0.9745143 0.9773157 0.97698003 1.003704 0.96763915
1.092689 0.9429578 1.0379664 1.0035719 0.98052394 0.9606921 0.9760197 1.0364938
1.0671233 1.0568391 1.005046 0.9499943 1.0460447 1.0271602 1.0409954 0.89029914
1.0410019 1.0368834 1.0443891 1.0191493 0.9888036 1.0267943 0.9902148 1.0086628
1.0375948 0.93774146 1.0376364 1.0068735 1.0004183 0.991833 1.0761182 1.012899
1.0088974 0.9635533 0.95484143 0.9928548 0.9602339 1.0385274 1.0349091 1.0182133
1.0024638 0.9388998 1.057006 0.95110756 0.9807707 0.975645 0.99869746 0.9772476

bias f4 [200]
00000000: 58bb 48be 0fdd 3dbd a622 033e 0138 f03c
00000010: 155a f8bb 6784 073d 6624 b43c 1993 063e
00000020: 60b9 893d 87bf 90bd f4a1 fe3d 028f 8c3d
00000030: 4069 3abd 5ef5 d7bc 101b 883d c17c 2f3d
00000040: 3ca8 c33d c775 013e daf9 933d 3d5d 80bd
00000050: 1c94 763d 34c3 1bbd b608 e6bb e69a 6cbd
00000060: ea3d 083e 0fc7 433d 56d0 57be 5af3 20bd
00000070: bbe0 ab3b 154e f23c 095e e33d c8b0 fb3d
00000080: e4c2 e1bc 9027 7bbd 5ec2 083e 89bd c8bc
00000090: 23fc c03c 27ca a23e a8e0 063d b3d7 2ebe
000000a0: f71a f63d f70b 933d 0dd6 52bd 5d3b 9abd
000000b0: b36f 36bb c790 d63d 9e6e 72bd f882 c63c
000000c0: 15b7 673d 2de0 d63d 66bc 153d b6e2 c7bc
000000d0: 54bc db3d a497 df3d 5449 8cbc e894 2cbe
000000e0: 7abc 263d bbb5 17be ab10 fcbd 0884 98bd
000000f0: 49cb d5bd 9225 09bd b727 7b3d 173b 6f3e
00000100: 1cbd 853d 0c97 92bd cc2a 4abd 4bec 233c
00000110: 8aad b73c 348f 1e3e 3db3 033c c47a 15be
00000120: ed93 90bc 4478 f4bd fcd9 a73d 38e0 073e
00000130: 7760 18bd fbd6 643e 2469 1f3d e148 14be
00000140: 4271 db3c b5f2 543d a8ff 3b3e 20a5 483e
00000150: 34bc c1bd 03f4 aa3d 5cf3 613d 56e7 553e
00000160: e9c4 89bc 0bf5 02bd 2ebf 3ebb b6ce 8a3d
00000170: 0211 20be f4ee 3abc 0c63 dcbd 9a22 093d
00000180: 0dda 8c3d c981 533d ad14 22b9 a2ac 0cbe
00000190: 33bf af3d f3cc 3b3d 5ef0 9b3c ebd9 9a3d
000001a0: 363b 2a3e 29b3 bebd 55a4 f33d 6619 e83d
000001b0: c467 313e 362b 25be 967e 033d e454 253e
000001c0: 05fa 183e b2f6 d13d 973f 69bd 0c50 903e
000001d0: 9071 4a3d 1729 0b3e 454f 4fbc 85e2 f53d
000001e0: 8ae7 0bbe 18c7 0f3e 218a 623d 3967 eb3c
000001f0: 56e0 533c 8e89 9f3c 6873 e137 f64a 7d3d
00000200: c7bd 98bb 597a 253d b38a 6dbd a836 18bd
00000210: 631f d33c 0d7f e03d a0d9 ffbd a627 d9bd
00000220: ab50 eb3b 1575 d3bd 4be5 d6bd d658 ddbd
00000230: 5de1 c83d 9820 b8bd fff5 f7bd 180d d83d
00000240: 14d6 8b3d 8b04 c83d f2e9 6cbd 9b32 93bd
00000250: 79de 113d 418f 5b3d 5069 d63d ff03 6a3d
00000260: 6c57 6b3c ecdd 9dbd 6eb5 d93d 38e5 cc38
00000270: ea5f 30be fb10 023e 1a28 243c a254 433e
00000280: f605 febc 4c17 233e 5932 2fbd c7d8 f0bd
00000290: 44b7 ce3d d965 ed3d 980f f03d be88 bd3c
000002a0: 2fc4 583e 0efd 4abd f43e 90bd 55ae cdbc
000002b0: 3d29 e6bd 3b42 8fbc f892 113c b495 bc3d
000002c0: ac7a 913d 5155 963d 04c4 893b 07d8 54bd
000002d0: b446 fbbb e66c aabd bd4c 63bc f3a3 963c
000002e0: 47ee ae3d 7843 7dbd a804 25bc 2678 a53d
000002f0: 2f6d 79be 2861 2ebd 0fe5 22bc ff3c e23d
00000300: da87 05bd 3ec2 8b3d adfc a1bd 3f45 913d
00000310: 3fb6 ae3d 10d1 193d f027 473d 0053 ea3d
-0.19602716 -0.046353396 0.12806186 0.02932358 -0.007579098 0.033085253 0.021990012 0.13142051
0.067248106 -0.07067781 0.12433234 0.06863214 -0.04551053 -0.026362117 0.06645787 0.042843584
0.095535725 0.12642585 0.0722539 -0.06267784 0.06019984 -0.038027957 -0.0070200814 -0.05776491
0.13304868 0.04779726 -0.21075568 -0.039294578 0.005245296 0.029578248 0.1110192 0.12289578
-0.027558751 -0.061317027 0.13355395 -0.02450444 0.023557728 0.31794855 0.032929093 -0.1707447
0.12016862 0.071800165 -0.051473666 -0.07530854 -0.0027837574 0.10476833 -0.059187524 0.024232373
0.056571085 0.10491977 0.036556624 -0.024400096 0.1072928 0.10917595 -0.01712481 -0.16853678
0.04070709 -0.14815418 -0.12307867 -0.07447058 -0.10439164 -0.033483095 0.061317172 0.23362385
0.065302104 -0.07157716 -0.04935722 0.010005067 0.022421617 0.15484315 0.008038339 -0.14597613
-0.017648662 -0.11937001 0.08195874 0.13269126 -0.03720137 0.22347634 0.03891863 -0.14480926
0.026787404 0.051989276 0.18359244 0.1959424 -0.09459725 0.08347323 0.055163726 0.20889029
-0.016817527 -0.031971972 -0.0029105651 0.06777708 -0.15631488 -0.01140951 -0.10761079 0.033480264
0.068775274 0.051637445 -0.00015457226 -0.13737729 0.0858139 0.04584975 0.019035514 0.07561096
0.1662415 -0.09311516 0.11896578 0.11332969 0.1732474 -0.16129765 0.032103144 0.16145664
0.14939125 0.102521315 -0.05694541 0.2818607 0.049424708 0.13589893 -0.012653177 0.12006096
-0.13662544 0.14040792 0.05530751 0.028735744 0.012931904 0.01947477 2.687583e-05 0.061839066
-0.004661295 0.040399883 -0.057993602 -0.0371615 0.025771802 0.10961733 -0.124926805 -0.106032655
0.007181247 -0.10325066 -0.10492953 -0.1080796 0.0980861 -0.08990592 -0.12107467 0.105493724
0.068279415 0.097664915 -0.057840295 -0.071873866 0.035612557 0.053603414 0.104693055 0.057132717
0.014364105 -0.07708344 0.10630308 9.770173e-05 -0.17224088 0.1270179 0.010019327 0.19075254
-0.031008702 0.15926856 -0.042772625 -0.11760097 0.10093549 0.115916915 0.11721724 0.023136493
0.21168588 -0.049557738 -0.07043257 -0.025107542 -0.11238334 -0.017487636 0.008885138 0.09208241
0.07103476 0.073404916 0.004204275 -0.051963832 -0.0076683406 -0.08321552 -0.013873276 0.018388724
0.085415415 -0.06183192 -0.010071911 0.08079557 -0.24358056 -0.042573124 -0.009942307 0.1104679
-0.03260026 0.06824158 -0.07909522 0.07093286 0.085308544 0.037552893 0.04862207 0.11441612

running_mean f4 [200]
00000000: 15b7 753e bf07 1c3e cc42 3b3e 529b 0e3e
00000010: 7aba a03e b7b0 1a3e 6349 353e 0691 663e
00000020: 9464 213e c0d9 8e3e 0bd3 8b3e acd6 be3e
00000030: bae6 533e 721e 543e fe3a c63e c67f 3c3e
00000040: 49dc 083e df3e 863e 1b4e 613e 174b 973e
00000050: 94f0 5e3e 173d 1b3e ae04 073e cac3 b53e
00000060: d5de 8b3e e944 b03e 8388 aa3e 5173 c93e
00000070: d110 cc3d c5d2 403e 29cc 533e bb86 b33e
00000080: d772 8a3e d24f 7b3e ce1b 963e f688 ab3e
00000090: 1b33 0a3e e058 803e 15a1 a53e d23a 943d
000000a0: 854e 333e 571a ba3e 6ceb 373e ced4 383e
000000b0: bfd7 283e 5e35 593d d876 7b3e 0767 943e
000000c0: 78e8 643e 5187 8d3e 36fb a13e aa0b ad3e
000000d0: 50d7 963e d949 093e 93fb 9d3e b33f fd3d
000000e0: dec3 5c3e 29ae 703e 0177 513e 3828 8c3e
000000f0: a8dc 0f3e cef4 143e ddfc 663e d378 843e
00000100: f9b0 5b3e 51c1 303e f614 0a3e cb31 b53e
00000110: e8ec 623e a810 803e eb26 843d 7759 7a3d
00000120: e59b 583e 9dc7 5d3e 51f2 883e 33b1 873e
00000130: 59b1 af3d f1a5 803e ca18 6c3e e594 303e
00000140: 7e75 5f3e 94f9 833e 37bc 9c3e b901 1c3e
00000150: 7b6d 9f3e 662d 723e 74ec 903e 62b4 703e
00000160: 7f3d 323e d692 6b3e ec04 a93e 71f7 ac3e
00000170: 4ae8 9a3e 89b0 4c3e 2bbb 5a3e 1a6c 7e3e
00000180: c131 253e a28b ef3d 4e2f 333e 70f3 3a3e
00000190: 30ae 403e 22fe 673e 8f37 023e cebe 6b3e
000001a0: a2eb 1d3e 30f2 693e 2b2c f23d 6c05 703e
000001b0: c095 973e 2d64 313e 48d7 933e b6da 753e
000001c0: bf0d b83e 7f39 853e 0b55 a53e 2dc7 913e
000001d0: 53a2 283e d80d 683e 453b 153e 0705 623e
000001e0: 290e c83e aaad 8d3e f5e7 d23e b8ba 333e
000001f0: 89ce b43e d1ae 733e 8e7e 9d3e ba8b 3a3e
00000200: 8645 8a3e 9c45 3e3e cfc4 583e 5327 6e3e
00000210: 3108 8b3e a2d9 853e 22b5 593e 7bc1 833e
00000220: 3019 543e ddb1 283e dce1 433e 9da9 223e
00000230: 4a84 e63d 9051 923e 2529 8f3e 5042 4f3e
00000240: 9a7d 9d3e b892 613e 41ce dc3e 387b 753e
00000250: a0ef 7f3e aa37 7a3e 450b 983e 1eae 713e
00000260: 8ec8 6c3e 2390 ab3e 8024 423e 0c8c 7a3e
00000270: 8b6c 443e 5875 953e 3b31 e03e bf0c 373e
00000280: d7fb ae3e 54d3 4c3e be37 533e c580 d53d
00000290: f3d9 873e 052c a43e 35f4 cc3e 3ccd 7c3e
000002a0: 8c70 5f3e dfe1 083e 3edc 393e df84 dc3d
000002b0: eb85 043e dc3d c13d 40f2 943e ce26 683e
000002c0: e1f0 4b3e c233 e03e a655 333e 07ec 183e
000002d0: 6b58 053e 2d99 293e 934a 2f3e a5ad fd3e
000002e0: 87e8 943e c00e e53d 3dcd ae3e cd61 1a3e
000002f0: f8ee 7b3e 6638 533e 4bf7 903e 0abe 373e
00000300: a271 5b3e 15f6 c53e 3542 553e 55d3 f03d
00000310: 8c6b 913e a07d 963e 1904 853e a8c6 bf3e
0.23995622 0.1523733 0.182872 0.13926437 0.3139227 0.15106474 0.17703776 0.2251626
0.15761024 0.27900505 0.2730945 0.37273157 0.20693484 0.20714739 0.38716882 0.18408117
0.13365282 0.26219842 0.22002451 0.29549477 0.21771461 0.15160023 0.13185379 0.35500938
0.27318445 0.34427574 0.33307275 0.39345792 0.09964145 0.18830402 0.2068335 0.3506373
0.2704074 0.24542168 0.29318088 0.3350293 0.13496058 0.25067806 0.32349458 0.072377816
0.17510422 0.3634822 0.179609 0.18049929 0.1648855 0.05302941 0.24557054 0.28984854
0.22354305 0.276423 0.3163697 0.3379796 0.29461145 0.13407077 0.30855998 0.12365665
0.21559092 0.23503937 0.20455553 0.27374434 0.14049017 0.1454651 0.22557397 0.25873432
0.21454228 0.17261244 0.13484558 0.35389552 0.22160685 0.25012708 0.064527355 0.061120477
0.21153219 0.21658178 0.26747373 0.2650238 0.08578748 0.25126603 0.23056331 0.17244299
0.21822163 0.2577635 0.30612347 0.15235032 0.31138214 0.2365013 0.283054 0.2350631
0.17406271 0.23005232 0.33011568 0.33782533 0.30255347 0.19989218 0.21360461 0.24845925
0.16132261 0.11696555 0.17498514 0.18256927 0.18816447 0.22655538 0.12716506 0.23022005
0.15421918 0.22846293 0.118248306 0.23439568 0.29606438 0.1732337 0.28875184 0.24009213
0.35947987 0.2602043 0.32291445 0.28472272 0.16468172 0.22661531 0.14573391 0.2207223
0.39073303 0.27671558 0.41192594 0.17551696 0.35313824 0.23797156 0.30760616 0.18217364
0.27006167 0.18581241 0.21168827 0.23257188 0.27154687 0.26142603 0.21260503 0.2573355
0.20712733 0.164741 0.19129127 0.15885015 0.11255701 0.28577852 0.27961078 0.2024014
0.3075989 0.22028625 0.4312611 0.23972785 0.24993753 0.24435297 0.29696098 0.23601577
0.2312338 0.33508405 0.18959236 0.24467486 0.19182031 0.2919109 0.4378756 0.17875956
0.34176514 0.2000249 0.20626733 0.104249515 0.2653347 0.32064834 0.40030065 0.24687666
0.21820277 0.13367413 0.18150422 0.10767531 0.1294171 0.09435627 0.29091072 0.22671053
0.19916107 0.43789488 0.17513141 0.14933787 0.1302201 0.16562338 0.17118292 0.49546543
0.29083654 0.11184454 0.3414096 0.1507637 0.24602878 0.20626983 0.2831367 0.17943588
0.21430066 0.38664308 0.20826037 0.117590584 0.28402364 0.2939272 0.2597969 0.3745625

running_var f4 [200]
00000000: f35c b93d f7f4 873d 3a9a 5e3d eb35 063d
00000010: 04f6 553e 772f 5d3d 7b61 b03d 3090 173e
00000020: b4f6 9b3d 2cd5 2a3e f298 043e c52f 833e
00000030: 447d f23d bd07 783d 54d6 853e 8fc3 c13d
00000040: 23f9 693d 933a 0e3e c413 a93d 66d9 3a3e
00000050: de5d 963d ca83 333d e637 323d 427a 503e
00000060: 5a96 333e 5b5a 2d3e 0c32 4a3e 2aa8 733e
00000070: 4b59 6e3c a726 8b3d e06f d23d 33e0 523e
00000080: 5538 de3d 1c27 213e 8029 2b3e 5604 4b3e
00000090: 1094 f73c a536 203e 3486 353e a0d6 493c
000000a0: f22b 363d c002 663e 5752 803d 59c0 ad3d
000000b0: 8d23 b53d 7553 ba3b ddaf 113e 2ae3 1f3e
000000c0: 49fc 153e 9f1e 0a3e 0d3c 5a3e efe1 263e
000000d0: a78a 163e 5635 143d b8e9 503e a6c9 033d
000000e0: f956 193e 483c f03d 94cf da3d 6165 043e
000000f0: 41a5 723d c75c 4f3d 6b89 c93d f0a3 223e
00000100: 4cdc d43d f358 943d 236a 333d 3c19 543e
00000110: 22e7 b53d 9ed1 ff3d 7695 ec3b 78b3 1f3c
00000120: c7b0 0f3e 7c8f 1d3e e17e e03d edf2 f23d
00000130: b4f6 913c c2d9 343e 4ca2 cd3d 33ac a53d
00000140: 1534 a93d a9ba d83d dff0 173e 8fbd 233d
00000150: bbe2 063e 060e 003e d219 1f3e 3c75 0e3e
00000160: 2efb 493d 4b6a d63d 7338 523e 7117 443e
00000170: 6aa4 193e 278f 6a3d 56ef f43d 7ca4 ee3d
00000180: 650a 563d 1234 e73c 20c2 a73d 76de 963d
00000190: a546 8f3d eab0 ae3d 8794 1d3d bde7 b53d
000001a0: f0ea 2c3d 791b b63d bfc4 e53c ee2c a93d
000001b0: bbb7 463e 12ee 4c3d 764c 6e3e c514 d83d
000001c0: 1036 933e 7825 d53d e046 223e bc4c 423e
000001d0: f21f 7c3d f50b dc3d 775b 143d 3263 a03d
000001e0: eeec 9a3e 60d3 4a3e fd27 8e3e 18e5 a43d
000001f0: 5cd5 803e 9baf 1e3e c521 6b3e d46a b63d
00000200: 0d72 1e3e e407 a73d d3da 9c3d 5ced 093e
00000210: e6c0 cb3d 2d6e 0a3e c12b ed3d c66b 3a3e
00000220: 2915 993d e03e 643d 3547 aa3d 90b5 9f3d
00000230: 8ca6 ae3c 434a fe3d 7e3d 0a3e ad2b 933d
00000240: 4e5c 033e c8d9 b63d 14d6 9c3e 692c 243e
00000250: 03ee 093e e818 b13d 2008 6d3e 0706 113e
00000260: 216a a93d 700b 463e 0a2e 813d b3c9 ad3d
00000270: 666e ce3d 77ac 1e3e 07b8 ac3e 2b31 993d
00000280: 4924 653e 0a01 df3d 6008 b03d 4fec d03c
00000290: 6397 fa3d d8aa 353e daaa 823e 7cfa 183e
000002a0: 1eda e33d 2156 2b3d 9584 6a3d 6970 0d3d
000002b0: f6b4 5d3d e5e8 753c 23e3 0e3e 02dd c73d
000002c0: f5ec d53d 1697 943e daee 8f3d b954 713d
000002d0: c241 1c3d 5032 b33d 3843 893d 98f0 ca3e
000002e0: 4dd4 223e e4b4 b13c 97ef 363e a2c8 913d
000002f0: a608 ee3d e33c ca3d 5998 0a3e a79a d93d
00000300: 935d d43d c8e4 563e 50bd cb3d 9482 2c3d
00000310: d56f 143e 2e22 6a3e d692 d33d f839 a33e
0.09050932 0.0663852 0.0543463 0.032766264 0.20894629 0.054000344 0.08612343 0.14801097
0.07615414 0.16682881 0.12948969 0.25622383 0.11840299 0.060554255 0.26140082 0.09461128
0.05712236 0.13889532 0.08255723 0.18246993 0.073421225 0.043826856 0.04351034 0.20359138
0.17537823 0.16928999 0.19745654 0.23794618 0.014547656 0.06794482 0.10275245 0.20593338
0.10850588 0.15737575 0.1671505 0.19825873 0.030221969 0.15645845 0.17726976 0.012319237
0.044475503 0.22461987 0.06265705 0.08483953 0.088446714 0.0056862184 0.14227243 0.15614
0.1464702 0.13488244 0.2131197 0.16297124 0.14701329 0.036183678 0.20401657 0.03217473
0.14974584 0.11730248 0.10684124 0.12929298 0.05923963 0.05062559 0.098406635 0.1588285
0.10393581 0.07243528 0.04380239 0.20712751 0.08881976 0.12491153 0.0072199656 0.0097473785
0.14032279 0.15386766 0.109617 0.11862741 0.017817833 0.17661193 0.10040721 0.08089485
0.08261887 0.105824776 0.14837979 0.0399757 0.13172428 0.1250535 0.15537193 0.13911909
0.04931181 0.104694925 0.20529346 0.19149567 0.15004125 0.057265427 0.11959712 0.11652467
0.052256007 0.028223071 0.08191323 0.0736665 0.06995896 0.085298374 0.038471725 0.08882091
0.04221624 0.08891959 0.028047917 0.08260523 0.19406025 0.05003173 0.23271355 0.105508365
0.28752184 0.10407537 0.15847349 0.18974584 0.061553903 0.10744468 0.03622004 0.0783142
0.30258888 0.19807196 0.27764884 0.08051509 0.2516278 0.15496676 0.22962101 0.089070946
0.15473194 0.08155802 0.07658925 0.13469452 0.09948902 0.13518591 0.11580611 0.18205175
0.07474739 0.055724025 0.08314363 0.07798302 0.02131965 0.12416508 0.1350002 0.07186065
0.1282818 0.08928257 0.3063208 0.16032566 0.134697 0.086473286 0.2314763 0.14162455
0.082721956 0.193403 0.063076094 0.08485737 0.100796506 0.15495478 0.33734152 0.07480081
0.22377123 0.1088887 0.085953474 0.025503306 0.12235906 0.17740953 0.25520974 0.14939302
0.11125587 0.041830186 0.057255346 0.03453103 0.054127656 0.01500914 0.13953833 0.09758951
0.104455866 0.2902152 0.07027979 0.05891869 0.03814865 0.08749831 0.06702274 0.39636683
0.15901299 0.0216927 0.17864834 0.07118346 0.11622743 0.098748945 0.13534679 0.10625201
0.1036941 0.2098571 0.09948218 0.042116717 0.14495786 0.22864601 0.10330741 0.31880164

weight f4 [100, 200]
00000000: af10 2abd 00c2 b9bc 1744 36bd a881 c33d
00000010: 8f63 01bd 9166 483d bdf1 8a3d f19f c73c
00000020: 1444 f1bd 8b7a ba3c 33fd 923c 119e 3a3a
00000030: 483f c73d f476 05bd 24f6 d63d c01e ba3d
00000040: ba78 da38 6345 a93c 98e0 803d f87f 223d
00000050: 78d5 04bd c6d0 953d 1a0a c23d 0049 dcbd
00000060: dca2 9f3c ee47 21bd bec2 243e 52ca 0bbc
00000070: d293 45bd 6c4d eabc 9b3f da3d f36c 2a3d
00000080: a36a 6a3c 6069 2e3d 0957 dd3d e750 933d
00000090: e8e4 16bd e54f 24be f527 06bd 09b7 033e
000000a0: 39b5 33bd 3960 213d b8ba 693d a0df 133a
000000b0: 61ef c4bd 92ff b03d 8ae8 903d 6fab ae3d
000000c0: 584a 6ebd 5a3d 443d a559 293d 2d02 08bd
000000d0: 815e 8b3d 3ee0 aabb 92e9 28bd c3b4 7e3c
000000e0: 03bb 33bd c86a b53d 3244 10be 1d4a 563c
000000f0: 0ccd cdbd 398b 163d b3c7 203e bcf8 b33b
00000100: 7369 593d 285a 713d 9a9f 38bd 0593 a63d
00000110: f609 643b 28ac 623d 058a 21bd 2db0 59bc
00000120: 6c66 31bd b782 6abc d0ab 9f3c c333 a93d
00000130: 592f c6bc d7e2 fc3c b3d1 673d 500c bbbb
00000140: 2788 bb3d 7bd1 48bd a07b 473b f8a9 6b3c
00000150: b2a6 c73c a114 783d 883d 203d f66c 3abb
00000160: 281a 853d 7370 783d 3516 d33d 0763 2f3c
00000170: ee81 3fbc 49c8 803d 401f e2bd a32d d9bd
00000180: f2fb 1c3e 3627 39bd 63a6 8f3b 9ca7 e4bc
00000190: 1ffc 0eb9 bb39 bb3b b5b8 58bc 5b75 783d
000001a0: 5de8 8ebc f4ef 5bbd 11cb 61bd 0eb0 c13d
000001b0: 8483 d8bb 9261 273d d307 e9bc e34e 2fbc
000001c0: af2e c9bc 2536 bbbd ed6b a03d eb7b e9bc
000001d0: 2bd0 febc af6b f9bc e198 2d3d f775 a63d
000001e0: 9749 bf3d 9853 d23b d2e4 b63c 5019 31bd
000001f0: 0a7c b43c 8c61 913d 22be f43d 9454 5ebb
00000200: 0cb4 913d ec91 babd 6e1c 343d f945 373d
00000210: f870 c4bc 71ef 5b3c b980 143d 8ba1 a83d
00000220: ef3d 8e3c 64f8 4dbc e790 513d 1e84 28be
00000230: dd9a 1cbd 1a30 7b3c 4899 b73d 23b8 573c
00000240: 665e c73c 4493 8f3d 8342 dc3d fd90 b9bc
00000250: 71f0 24bd 8423 69bc 0f80 58bc ff46 84bd
00000260: a623 703d ff31 fc3d d044 0d3d 1015 f53b
00000270: 06ae b3bc 9d8e 673d 5b98 063d a275 fbbd
00000280: b5ca a03d 5962 ab3d e201 9cbd 1c7f aa3d
00000290: 8d8c dc3c bd58 e8bb ef8f 363b f025 883d
000002a0: 7acd f3bd ed97 bebd 4ce2 4d3d 4043 25be
000002b0: c792 c0bc d6e4 b23c 9428 9c3d 2f37 17bd
000002c0: bdb2 323d 9c69 ddbc 6c1a a73d d3cd 6ebd
000002d0: e64f bdbd 403a 40bd 1d97 9a3d bfcd 0e3d
000002e0: b9ec 96bd 034c 2d3d 5fdb 88bc 4e77 f4bd
000002f0: 7f41 1e3d b4e4 ac3d bf0f f73b dfab b6bc
00000300: a29f 9d3d 6bc0 afbb 6f79 4fbd 85ff d9bd
00000310: bd25 1cbd bedd 33bd c1a6 ab38 ef2c 303d
00000320: 2df3 043d f810 e1bb 1b20 8b3d 6333 dcbd
00000330: 56af 893b 6b37 c83d 0260 b03d 8a6a 27bd
00000340: 460a d33c 95b0 893c f925 61bd c52c 64bb
00000350: a45d a9bb af9a 27bd a7d3 fe3c ba91 e23c
00000360: 071d aebc ec92 973d f684 7dbb 0794 db3c
00000370: 4927 ba3d b010 ae3a d7cc 7d3d 8376 d9bc
00000380: cb24 eb3b ed17 21bc 0d80 0bbc ed84 05bc
00000390: 1e97 fd3c 4d59 39bb ef27 bb3d 693b 74bd
000003a0: 96ad 8a3c ab73 c6bc f38a 5bbc a731 983d
000003b0: f19c 583d 0428 93bc 30e0 a1bd 5534 1c3d
000003c0: 5583 a1bb 6a11 15bb c8e3 d93a 90d3 433d
000003d0: c63b 423d 99fc 02bd 3a96 743d 5a55 853d
000003e0: 1b12 c33c ab6a a6bb 2f29 c53c 2779 613d
000003f0: bdb3 a7bd 916d 1bbd 7a5f 243d 366f 61bd
-0.041519817 -0.022675514 -0.04449853 0.09546214 -0.031589087 0.04892594 0.06784389 0.024368258
-0.11780563 0.022763511 0.017943 0.00071188906 0.09728867 -0.032584146 0.10496166 0.09087896
0.00010417537 0.020662969 0.06292838 0.03967282 -0.032430142 0.07315211 0.09474583 -0.10756111
0.019486837 -0.039375238 0.16089913 -0.008532124 -0.048236676 -0.02860137 0.10656663 0.04160781
0.014307651 0.042580962 0.10807616 0.07193165 -0.036839396 -0.16046102 -0.03275295 0.12862791
-0.043874 0.039398406 0.057062835 0.00056409277 -0.096159704 0.08642496 0.07075603 0.08528792
-0.05817637 0.047910072 0.041345257 -0.0332052 0.068051346 -0.00521472 -0.041238375 0.015546027
-0.04387952 0.088582575 -0.14088514 0.013079193 -0.10048875 0.036753867 0.15701179 0.005492298
0.05307908 0.05892387 -0.045074083 0.081335105 0.0034795976 0.055339962 -0.039438266 -0.0132866325
-0.043310568 -0.014313391 0.019491106 0.08261826 -0.024192499 0.030869884 0.05659647 -0.005708255
0.091568284 -0.0490279 0.0030438676 0.014383785 0.024371479 0.06056655 0.03912118 -0.0028446293
0.064991295 0.060654115 0.1030697 0.010704762 -0.0116886925 0.06288201 -0.11041117 -0.10604408
0.15330485 -0.04520341 0.0043838485 -0.027911954 -0.00013636098 0.005713669 -0.013227631 0.060658794
-0.017444784 -0.053695634 -0.0551253 0.09457408 -0.0066074748 0.040864535 -0.028446114 -0.01069996
-0.024558393 -0.091411866 0.07833085 -0.028501472 -0.031105122 -0.030446855 0.042382125 0.08127969
0.09340208 0.0064186566 0.022325907 -0.04323703 0.022031803 0.07098684 0.119503275 -0.0033924924
0.07114419 -0.09109864 0.043972425 0.044744466 -0.023979649 0.0134237865 0.036255572 0.08233937
0.017363517 -0.012571428 0.05116358 -0.16456649 -0.038233627 0.0153312925 0.08964783 0.01316646
0.024337005 0.070105106 0.107548736 -0.022652144 -0.040268365 -0.014229659 -0.013214125 -0.06458854
0.058627747 0.123142235 0.034489453 0.0074793175 -0.021933567 0.05653249 0.03286014 -0.12278296
0.07851163 0.08368368 -0.076175466 0.083250254 0.026922489 -0.0070906566 0.0027856787 0.06647861
-0.11904426 -0.09306321 0.05026464 -0.16138935 -0.023507489 0.021837633 0.07624927 -0.03691786
0.04362749 -0.027027898 0.081593364 -0.058301758 -0.09243755 -0.04693055 0.07548354 0.034864184
-0.0736937 0.04230882 -0.016706167 -0.11936818 0.03863668 0.08442059 0.007539719 -0.022298751
0.07696463 -0.005363514 -0.050652917 -0.106444396 -0.038121928 -0.04391264 8.184976e-05 0.043011602
0.032458473 -0.006868478 0.06793233 -0.10751989 0.00420181 0.09776195 0.08612062 -0.040873088
0.025761735 0.016807834 -0.054967854 -0.0034816724 -0.0051686335 -0.040919002 0.031106783 0.027657378
-0.021254076 0.0740107 -0.0038683987 0.026803983 0.09089524 0.001328012 0.06196293 -0.026545769
0.007176017 -0.0098323645 -0.008514416 -0.008149368 0.030955847 -0.0028281987 0.09138476 -0.05962697
0.016928475 -0.024225077 -0.013399827 0.074313454 0.052884046 -0.017963417 -0.079040885 0.038135845
-0.004928986 -0.0022745975 0.001662367 0.047809184 0.047420286 -0.031979177 0.05971358 0.0651042
0.023812344 -0.005078634 0.02406749 0.05504718 -0.08188579 -0.037946288 0.040130116 -0.0550377

weight f4 [100]
00000000: ac34 713f 77ba 6d3f 185f 773f d7b0 413f
00000010: 089a 703f da83 703f ae8e 743f 89ca 773f
00000020: 208f 713f a1be 783f e412 5c3f fc8d 753f
00000030: 06f2 753f 0e19 6c3f 32fc 803f 0aa9 6e3f
00000040: c8c1 6c3f 2734 6e3f 658a 723f 1bfb 6b3f
00000050: 718f 7d3f 8883 833f 7853 833f f459 783f
00000060: 9e0a 6c3f ddd3 683f 630d 803f 5354 773f
00000070: 235e 533f 04cd 6b3f 3632 6d3f f06b 713f
00000080: 3704 703f 84be 713f f172 703f a133 6b3f
00000090: 1bf4 823f f49d 733f 537e 713f 5a46 773f
000000a0: 70f5 743f 0a64 773f e689 703f fd6c 763f
000000b0: 1745 743f 0454 773f 0cf4 703f b59c 733f
000000c0: 48bd 6c3f a582 7d3f 0431 723f 4cdf 683f
000000d0: 232d 7f3f c76d 753f 9667 7b3f 6a84 7f3f
000000e0: 7fc2 6f3f 8cf8 733f 181d 783f 265f 6f3f
000000f0: 5d00 743f 8573 1b3f 70d5 743f 85ca 6b3f
00000100: 8cc4 6e3f 78db 643f 925c 693f afb1 7f3f
00000110: 1db9 783f ed78 7a3f 5902 863f b30d 723f
00000120: 84b6 7f3f 69d5 6d3f c9a5 663f 46da 693f
00000130: 42a8 6d3f 3c1a 663f 8cb3 703f 44a2 613f
00000140: 9539 743f 161a 713f 13e0 2d3f f818 793f
00000150: ee7d 703f 6734 743f a868 7d3f 4fa9 743f
00000160: f314 733f d4b1 733f 80ab 773f 01b2 743f
00000170: e4a7 6b3f 1846 733f 6e57 773f b09a 373f
00000180: 2f05 733f 6834 823f b6af 403f 3690 733f
0.94220996 0.9286265 0.96629477 0.7566046 0.93985033 0.9395119 0.9553021 0.9679342
0.94359016 0.97165877 0.85966325 0.95919776 0.96072423 0.9222573 1.0076964 0.93226683
0.92483187 0.9304833 0.94742423 0.9218003 0.99047 1.0274515 1.0259848 0.9701226
0.922037 0.9094828 1.0004085 0.96613044 0.82565516 0.92109704 0.9265474 0.94305325
0.9375643 0.9443133 0.93925387 0.91875654 1.0230745 0.9516289 0.9433338 0.9659172
0.9568701 0.9663702 0.93960416 0.9626005 0.9541792 0.9661257 0.94122386 0.9516099
0.9247632 0.9902747 0.9460604 0.90965724 0.9967825 0.9587063 0.98204935 0.9981142
0.9365615 0.9530113 0.96919394 0.9350456 0.95313054 0.60723144 0.9563818 0.92105895
0.93268657 0.8939738 0.91156876 0.998805 0.9715746 0.9784077 1.0469466 0.94552153
0.9988787 0.92903763 0.9009672 0.91348684 0.92834866 0.8988378 0.94023967 0.8813822
0.95400363 0.9418043 0.67920035 0.97303724 0.93942153 0.9539246 0.9898782 0.95570844
0.9495384 0.9519322 0.96746063 0.9558411 0.92053056 0.9502883 0.9661778 0.7172041
0.94929785 1.0172243 0.75268114 0.95141923

bias f4 [100]
00000000: 77c1 793c b197 103c 63fc 583b 1eb0 07bd
00000010: bdfb e1bc f2c2 d63b e16b 90bc 9d25 81bc
00000020: 0712 923c c308 5fbc 5b5a 9c3c c3c0 273d
00000030: 8ddc 7abc 1fa7 283d 93b4 8dbc 2fa3 453d
00000040: 1fba 0dbc e5f1 52bc 010c 97bc 62c7 fd3c
00000050: 5d72 c3bb c807 afbb 1620 0d3d 0cc8 b7bc
00000060: 8cc6 71bc a16f 523c 6847 f33b a272 61bc
00000070: 32b2 253a 38dd a2bc 0dbd 9e3c 3ab0 683c
00000080: fe4e 04bb 4724 cf3c 2345 df3c e179 6a3b
00000090: e53e 82bb 2f5b 943c 7d27 99bc 8162 63bb
000000a0: ad8a 0b3c d0db 773d bcab 43bd 1d4f 3e3c
000000b0: d52e 5cbc 3ded 51bc 4370 cebc 2394 c33c
000000c0: 3807 a33c 5615 98bc 978a 1abd 84a6 803c
000000d0: 929a 40bc b24d 97bc c871 1a3c bb34 393d
000000e0: a709 97bb 8e4e 6b3c 689f 513c 5f2a 0c3c
000000f0: 8389 b0bb 5bc3 cfbd 193f 9f3c d60f f73b
00000100: 0d1a 833c 7ae6 22bb 2fe3 4fbc 4a3c d93c
00000110: 3fd8 263c 43ab 06b8 f7d9 97bc d0ec 153c
00000120: 14d2 b3bb 2335 27bd 613b 32bd cb10 8d3b
00000130: f2d1 87bc d0b0 26bd 4ebe a1bc 897b a3bc
00000140: 9eea b7ba 2672 e4bc 6627 103c a7ef d8bb
00000150: 617f e9bb 9698 2c3c 0653 573c 4d71 b43c
00000160: 35ec 19bc 6962 28bb c170 113c cc3e 11bc
00000170: e978 b2bc 7862 2dbd e291 a5bc cdcc 02be
00000180: 72b9 2d3d ad00 513c 7610 b2bb ebe3 ca3a
0.0152438795 0.008825229 0.0033109419 -0.033126943 -0.027585858 0.006554001 -0.017629566 -0.015765006
0.017830862 -0.013612929 0.019086054 0.040955316 -0.0153113725 0.041175004 -0.017298019 0.048251327
-0.008650332 -0.012875055 -0.018438341 0.030978862 -0.005964561 -0.005341504 0.034454428 -0.022434257
-0.01475681 0.012843997 0.007424284 -0.013760241 0.00063208037 -0.019880876 0.019377256 0.014202172
-0.0020188685 0.025285853 0.027254647 0.0035778212 -0.003974783 0.018109886 -0.018695587 -0.0034696164
0.00851695 0.060512364 -0.0477712 0.011615542 -0.0134389 -0.01281291 -0.025200015 0.023874348
0.019900903 -0.018564861 -0.037729826 0.0157044 -0.011755602 -0.018469665 0.009426542 0.045216303
-0.004609305 0.014361991 0.012794353 0.008555024 -0.0053874864 -0.10144683 0.019439267 0.0075397296
0.016003633 -0.0024856613 -0.012688442 0.026518006 0.010183393 -3.210759e-05 -0.01853655 0.009150699
-0.0054876897 -0.04082216 -0.04351366 0.0043049804 -0.016579602 -0.040695965 -0.019744065 -0.019956367
-0.0014031713 -0.027886461 0.008798456 -0.0066203657 -0.0071257805 0.010534426 0.013142353 0.022026682
-0.009394695 -0.0025693423 0.00887698 -0.00886507 -0.02178617 -0.042330235 -0.020211164 -0.12773438
0.042413183 0.012756509 -0.005434091 0.0015479302

running_mean f4 [100]
00000000: 02e0 553f 3296 293f 3ad0 9a3f 236d 1740
00000010: 04a5 513f d83d 103f 96d6 423f 1646 253f
00000020: 60c3 823f 9348 943f b83d 913f c71f 763f
00000030: 313d 1b3f 2e6c 963f 39e0 803f dd32 b03f
00000040: 9b74 783f 0f33 613f 0547 0c3f d8ac 623f
00000050: 1429 733f f376 3d3f 68a7 3a3f c8b8 383f
00000060: ca5d b63e 5967 343f 25de 453f 45e4 b93f
00000070: 03f1 293f db51 8d3f dd05 493f 1c02 803f
00000080: 2026 573f c7ab 553f 442a fb3e 7e9b 983f
00000090: 18c7 4d3f 8292 8c3f 87eb 203f 3367 6f3f
000000a0: db36 5e3f ecda 8a3f 5887 253f f999 323f
000000b0: 858d 843f a592 b53f 0c2e 903f fa45 1d3f
000000c0: ab03 723f 7597 5a3f cdd1 633f fb46 573f
000000d0: 8f6b 773f afcc 5f3f 8358 983f 6629 2d3f
000000e0: 7647 1b3f 0c98 1e3f 7bc1 623f de01 583f
000000f0: 5dcb 063f 4654 bc3f f3d5 693f 6758 393f
00000100: 949e 153f e0a1 703f 66d4 173f af66 1b3f
00000110: f6e6 9f3f c020 723f e388 853f bf51 403f
00000120: 8de0 5a3f ced6 083f b90f d43e ae6a 423f
00000130: 9b72 553f 013e 5a3f 0d88 3d3f 62e7 633f
00000140: 271f 6f3f 3286 3b3f 1239 0140 5eba a03f
00000150: 7fe1 3a3f 2f9d 553f 8d6f a03f 3b60 543f
00000160: ce74 303f 4579 823f fe5d 263f 43df 553f
00000170: ddca 343f d8c8 9f3f 075a 913f 3445 dc3f
00000180: 9dac 563f 5af9 1e3f 8247 c93f b6c4 303f
0.83544934 0.66244805 1.2094796 2.3660362 0.8189242 0.56344366 0.7610868 0.6456007
1.0215874 1.1584648 1.134696 0.9614224 0.60640246 1.1751764 1.0068427 1.3765522
0.97052926 0.87968534 0.5479587 0.8854499 0.94984555 0.7400963 0.7291169 0.72156954
0.3561843 0.70470196 0.7729209 1.4522787 0.6638338 1.1040605 0.7852457 1.0000644
0.8404255 0.83465236 0.49055684 1.1922452 0.8038192 1.0982211 0.62859386 0.93516845
0.8680245 1.084806 0.64659643 0.69766194 1.0355688 1.4185377 1.1264052 0.614349
0.94536847 0.85387355 0.88992006 0.8409268 0.96648496 0.874217 1.1902012 0.67641294
0.60655916 0.61950755 0.8857648 0.8437785 0.5265406 1.4713218 0.91342086 0.72400516
0.58445096 0.93997 0.5930847 0.6070356 1.2492359 0.9458122 1.04324 0.75124735
0.8549889 0.53452766 0.41418245 0.7594403 0.83378 0.8525086 0.7403572 0.8902494
0.9340691 0.7325164 2.0191083 1.2556875 0.7300033 0.8344297 1.2534043 0.82959336
0.6892823 1.0193259 0.6498717 0.83543795 0.70622045 1.2483168 1.1355599 1.7208619
0.83857137 0.6209923 1.5724947 0.6905016

running_var f4 [100]
00000000: 9a7e 0b40 ea01 a33f b3ff cc3f c535 0841
00000010: b0fb ba3f 2ad1 5a3f f8c1 963f 01d6 703f
00000020: 4997 903f c653 e73f 8b8c 0940 dae0 0040
00000030: f8be ba3f cf42 1540 ba64 b43f d7c4 5240
00000040: efdc ee3f ea3d 0140 e5a5 4b3f 0c1e d73f
00000050: dfb6 f53f f478 893f 20cc f53f 979c ae3f
00000060: 3791 003f ff4d af3f 1656 d33f 9a24 1340
00000070: 7944 5a3f 185e d83f 4d8c dc3f 5441 ee3f
00000080: d4e2 ad3f 18f0 c33f 9c9c 1d3f b5b2 e53f
00000090: be88 0c40 0465 d93f 11f8 253f 3431 1d40
000000a0: 1a2d fd3f c40f 1a40 9b83 a63f 16e7 df3f
000000b0: f7be 3140 0845 4840 c926 da3f 730d 183f
000000c0: 6c8b c13f cbf0 d93f 17b6 a83f bbce a53f
000000d0: 0fd5 1e40 8502 0140 9dce 1940 2783 623f
000000e0: 7cdf 693f a671 b53f b8fd 0240 308b 883f
000000f0: e113 193f 0364 da40 c61b 0240 4b5a 8b3f
00000100: 2b0d 7f3f 2d46 0140 f5db 8f3f 61ed 4b3f
00000110: d123 4840 2076 fe3f 404d a23f 8a8e 953f
00000120: 046f 6b3f fd91 6f3f 995b f13e 1728 a33f
00000130: a752 a53f 8033 f03f edfb df3f f6c4 0040
00000140: 2d03 1240 cd36 c33f cd53 e040 3822 fd3f
00000150: d429 8c3f 41bb 6a3f 9885 5e40 e9a3 b53f
00000160: 7f4c be3f 146c ad3f 1e9a 5b3f 6beb b13f
00000170: 83f0 803f e218 2240 f35c 2640 88fa 7d40
00000180: a8ea e53f c9b7 263f cd74 cb40 579e 5d3f
2.1796021 1.2734959 1.6015533 8.513127 1.4608059 0.8547541 1.1777945 0.94076544
1.1296169 1.8072441 2.149203 2.0137239 1.4589529 2.3322027 1.4093239 3.2932642
1.8661174 2.019404 0.7955001 1.6806045 1.9196433 1.0740037 1.9202919 1.3641537
0.5022158 1.3695678 1.6510646 2.299109 0.8526073 1.6903715 1.7230316 1.8613687
1.3584847 1.5307646 0.6156709 1.7945162 2.195846 1.6983953 0.64831644 2.4561281
1.9779389 2.4072123 1.3008913 1.7492397 2.7772806 3.1292133 1.7043086 0.5939552
1.5120673 1.7026609 1.318057 1.2953714 2.481754 2.0157788 2.4032357 0.8848137
0.91356635 1.4175308 2.0467358 1.0667477 0.5979596 6.8247085 2.0329452 1.088693
0.9962947 2.0199082 1.1239 0.79659086 3.127186 1.9879799 1.2679825 1.1684124
0.9196627 0.93582135 0.47140196 1.274661 1.2915848 1.8765717 1.7498757 2.0120215
2.2814438 1.5251099 7.0102296 1.9776068 1.0950265 0.91691977 3.476904 1.4190646
1.4867095 1.3548608 0.8578204 1.3899969 1.0073398 2.5327687 2.5994232 3.9684162
1.7962236 0.65124184 6.358008 0.8656973

weight f4 [1, 100]
00000000: 9f65 093d 06fc edbc a284 66bd 3ea0 52bc
00000010: 5652 063d f0cb febc 098c cabc cf26 30bd
00000020: 4758 473d 46aa 88bd b0f2 b3bc 6208 2a3d
00000030: 4987 773d c30a e6bc 826a bbbd f0bc f1bc
00000040: 2cb1 9c3c f2e3 6abc 9167 1c3d 78f5 c13c
00000050: 52cc 4f3d 2533 cbbd 38d6 d4bd 5124 45bd
00000060: 5cbb 0abd b14f b7bc 338f 7d3d bf51 7ebd
00000070: 78c3 87ba dc20 873c 24b6 833c a6d0 083d
00000080: f3a3 21bd 50d2 ffbc e49f d5bc afa1 d03c
00000090: 6fef f5bd 1d6d 113d 2e33 ca3c 709f 3bbd
000000a0: d60d 503d c395 14bd 9df8 1c3d 1932 853d
000000b0: 3d29 10bd f511 8d3d 9468 3f3d 8e09 3bbd
000000c0: c65c febc 6ef8 8ebd 4731 2d3d 2f9e a63c
000000d0: c279 8d3d bc8e 533d bbf9 53bd 6f72 983d
000000e0: 27f1 08bd 9bf1 e9bc ecb5 2d3d 53a7 a6bc
000000f0: ddfa 283d 30b6 67bc 8780 4bbd 1ad6 f8bc
00000100: 485c fcbc 49f8 c83c 0663 b43c ce69 a4bd
00000110: 0174 3bbd 6326 24bd d126 e33d 2ca0 473d
00000120: 55e5 dcbd 233a 793c b33d c03b a6ab 8f3c
00000130: c0d4 f23c 573d f1ba ec97 f83c 7c9f 99bc
00000140: f03d 1f3d dab9 cb3c 6d67 4e3c 5bcc 473d
00000150: c3d6 bdbc 171b 293d d6c7 74bd 128b 06bd
00000160: 9e7e d4bc ccf8 173d 2a75 38bd eff3 5f3d
00000170: 083a 9c3c 43e0 613d 82b4 44bd 2c90 30bc
00000180: e932 85bd e02b fe3d 3364 80bc 0e5d 2b3d
0.03354418 -0.029050838 -0.056278832 -0.0128555875 0.032793365 -0.031103104 -0.024724977 -0.04300576
0.048668172 -0.06673102 -0.021966308 0.0415119 0.060431752 -0.028081303 -0.09151174 -0.029509038
0.01912745 -0.014336573 0.038184706 0.023676619 0.050731964 -0.099218644 -0.103924215 -0.048130337
-0.033870086 -0.022376867 0.061904144 -0.062089678 -0.0010357937 0.01649516 0.016078062 0.033402108
-0.039462995 -0.031228215 -0.026077218 0.025467722 -0.12008559 0.03550445 0.024682608 -0.04580635
0.050794445 -0.036275636 0.038323034 0.06503696 -0.035195578 0.06888191 0.046730593 -0.04566341
-0.031050097 -0.06980978 0.042283323 0.0203391 0.06907989 0.051649794 -0.051751833 0.074437015
-0.033433106 -0.02855759 0.042409822 -0.020343458 0.041254867 -0.014142558 -0.04968312 -0.03037553
-0.030805722 0.024532454 0.022019874 -0.08027993 -0.045764927 -0.04007567 0.11091388 0.048736736
-0.10785929 0.015211615 0.00586673 0.017537903 0.029642463 -0.0018405122 0.03034588 -0.018752806
0.038877428 0.024868894 0.012597901 0.048778873 -0.023173695 0.0412856 -0.05976089 -0.03284747
-0.025939282 0.037102506 -0.04503361 0.054675993 0.01907064 0.055145513 -0.04802371 -0.010776561
-0.06503851 0.12410712 -0.015672779 0.04183679
